checkpoints/model.ckpt (torch, 240244 bytes, 14 tensors)

cnn1.weight f4 [48, 1, 3, 3]
000000 95 93 88 3e 1b 0e 2f 3e 3d bf e4 3d 4c de 46 3d
       0.26675096 0.17095225 0.11169288 0.048551843
000010 80 6b 86 3d 44 fb 05 3e c5 24 76 3e 68 5d bc 3e
       0.06563473 0.13084131 0.24037464 0.36790013
000020 60 0a ee 3c 05 57 12 bd e7 9f 2d 3c 77 99 fe 3c
       0.029057682 -0.03572752 0.010597206 0.031079037
000030 bb ed 09 bd a3 7c ea 3c 10 0d ad 3c a5 18 99 3e
       -0.033673983 0.028623885 0.021124393 0.29901615
000040 c9 ca 97 be 76 a2 99 be 3a 90 82 3e e4 05 2a 3e
       -0.296469 -0.3000676 0.2550066 0.1660381
000050 26 e3 ab be 22 a4 1a 3e 1d 97 e2 3d a7 2e 6e be
       -0.33571738 0.15101674 0.11063979 -0.23259984
000060 e2 f7 79 be 02 db 0a be fd c6 b4 3e 89 94 b6 be
       -0.24410966 -0.13560107 0.35308066 -0.35660198
000070 22 6a 8a be f8 fa 77 3a fe cd 04 3d a4 a7 a9 3c
       -0.27034098 0.00094596995 0.032423012 0.02070982
000080 4c ff 3e 39 a2 58 ab bc 58 84 8a bc cb 18 10 3b
       0.00018214918 -0.020916287 -0.01690881 0.0021987434
000090 09 7c 23 3d 1a cf 31 bc d2 b2 a2 3c d4 45 40 3d
       0.03991321 -0.0108525995 0.019860659 0.046941593
0000a0 27 66 a6 bc c1 ca de 3c a0 80 97 be 54 1a 5f 3e
       -0.020312382 0.02719629 -0.2959032 0.21787387
0000b0 2b 38 a4 be b9 e1 53 3c 05 a2 88 3e f8 06 bc be
       -0.32074103 0.012932234 0.2668611 -0.36724067
0000c0 87 a1 8b bc 97 dc c0 bd 60 a4 c1 3d 33 39 4b 3b
       -0.017044796 -0.09417074 0.0945518 0.0031009435
0000d0 d9 a5 0f 3b 8a 12 54 3a 89 76 3b 3d 51 f0 c5 bd
       0.0021918921 0.0008089921 0.04576734 -0.09664977
0000e0 be 1e 01 3e b8 4a a0 bb b3 f6 8c bd 3f 57 08 3d
       0.12609383 -0.0048917197 -0.06882992 0.03328633
0000f0 c6 5f e1 3e 22 34 ca be fe 19 a9 3e 46 ec 33 bd
       0.44018382 -0.394929 0.33027643 -0.0439265
000100 c9 a1 46 bd 29 fb 78 bc ea e2 68 bd b7 ce 9a bd
       -0.048494134 -0.0151966 -0.056857027 -0.07558959
000110 b0 62 f6 3b 1e d3 c7 3e 9e fe d3 3e 90 77 00 bc
       0.0075190887 0.39028257 0.41405195 -0.007841006
000120 9d e3 f2 3c bc 32 19 3d eb 22 bc bd 98 f1 c3 be
       0.02964955 0.0374019 -0.091863476 -0.3827026
000130 0d 00 b0 be 71 d6 80 3e 88 c3 93 3e ee db 81 3e
       -0.3437504 0.25163606 0.28860116 0.25363106
000140 d5 da d2 bd 45 78 e8 3b b7 fd e3 3c c9 6d 31 3b
       -0.10295645 0.0070944154 0.027830942 0.0027073494
000150 99 53 cc 3c be 76 19 3d c3 be 28 3c 01 15 be be
       0.024942206 0.037466757 0.010299387 -0.371254
000160 74 4d b1 be d5 92 46 bc 9e 22 ae bd d5 2a c5 3d
       -0.34629405 -0.012119968 -0.085026965 0.0962731
000170 ae 02 9d bd 5d 59 8b 3e 32 7c a1 be b6 43 72 3e
       -0.07666527 0.27216616 -0.31540066 0.23658642
000180 9d 80 66 bd bf 97 a3 3d f6 d8 ca bd de 63 52 be
       -0.056275 0.07987928 -0.09904663 -0.20545909
000190 81 3a 7b 3e e2 9a 49 3e 7c 59 b2 3c fb e1 4d bd
       0.24534036 0.1968799 0.021771185 -0.05026434
0001a0 bf 12 05 bd 2d 1b 82 3e f1 e1 4f be bf 1b 60 be
       -0.03248858 0.25411358 -0.20301034 -0.21885584
0001b0 0d b1 73 3e 3f 2d 99 3e fe f2 9c 3e 97 74 ce 3c
       0.23798008 0.29917333 0.30654138 0.025202079
0001c0 ed 42 71 3c 77 05 ed 3a 98 43 03 be 67 c2 76 be
       0.014725429 0.0018083294 -0.12818754 -0.24097596
0001d0 94 7f 75 be 30 6a 75 3c 52 8e 3b 3e ec 0e 40 3e
       -0.23974448 0.01497893 0.1831601 0.18755692
0001e0 6f 99 ea 3c 83 13 9d bd 89 34 e9 3d ea 7a ec be
       0.028637616 -0.07669737 0.113869734 -0.46187526
0001f0 b2 24 5a be a7 1d 90 3e 2a 96 9e be e2 b8 86 be
       -0.2130306 0.28147623 -0.3097394 -0.2631293
000200 57 00 28 3e 1b e1 a5 3e bc ff 77 3e 29 8d 56 be
       0.1640638 0.32398304 0.24218649 -0.20952286
000210 b2 68 a7 bd f1 f7 43 bd 46 8f b3 3d 65 85 c4 3e
       -0.08174266 -0.047843877 0.087675616 0.38383022
000220 83 37 d0 bd 40 33 3f 3e 99 6b 4d 3d f8 9f a0 3c
       -0.10166838 0.18671894 0.05015144 0.019607529
000230 ed 64 c7 3d 00 b0 f4 bd 74 6a 55 3e 49 cf 47 be
       0.09736047 -0.11947632 0.2084139 -0.19512667
000240 8e 4d b6 be 94 c1 a2 3e eb 46 a9 be fa 3d 25 3c
       -0.35606045 0.31788313 -0.3306192 0.010085577
000250 58 98 1d bd d7 c5 ed 3c 61 9a 0f 3d c9 1b 6c bc
       -0.038475364 0.029025001 0.035059337 -0.014410921
000260 aa 43 be 3c 37 ed 0b bc 6d 3a 2b bc c0 50 56 3c
       0.023225624 -0.008540443 -0.0104509415 0.013080776
000270 8a e6 b9 be 65 c7 cd be b1 e3 b0 be f9 bc 25 3e
       -0.363087 -0.40191188 -0.34548715 0.16185369
000280 f5 82 0d 3e 78 84 0b 3e b6 fa 2a bc ed b5 7a bc
       0.13819487 0.13624752 -0.010435751 -0.015302164
000290 a6 20 63 bc eb 8d ec bd 2a fc dd 3d 7d 47 fc bd
       -0.013862764 -0.11550506 0.10839112 -0.12318323
0002a0 9c 6b 8f 3e d4 d7 67 be 64 ea a8 3e 80 62 41 3e
       0.28011787 -0.22640926 0.32991326 0.18885231
0002b0 a7 c7 ae be 55 84 b2 be 40 8d df bc f0 9d a4 3d
       -0.34136698 -0.34866586 -0.027289033 0.08037937
0002c0 61 11 ce 3c fb 2c 67 bd 2b 29 0e 3d dd 3a 97 3d
       0.025154771 -0.05643938 0.03470723 0.07384274
0002d0 23 84 70 be aa b2 b0 3e be 39 c9 be 09 d6 5f 3e
       -0.23487906 0.3451131 -0.39301866 0.21858992
0002e0 e8 6e 35 bd 0c b6 e8 bd 47 db 44 3e 0f 58 d0 3d
       -0.04429522 -0.11362848 0.19224273 0.10173046
0002f0 c1 a7 6d be 0e fa 91 be be d2 d2 bd 97 89 ca bd
       -0.23208524 -0.2851109 -0.10294102 -0.098895244
000300 b0 7f e8 3e 2e 90 58 3e 4e c1 58 3e 29 fc 05 be
       0.45409918 0.2114875 0.2116749 -0.13084473
000310 a8 97 71 bd 18 76 b6 bd 87 81 1b 3e af 98 69 3e
       -0.05898252 -0.08909243 0.1518613 0.2281215
000320 48 fe 9a bd e1 58 96 3e a5 a0 8f 3e fe cc 6a be
       -0.075680315 0.29364684 0.2805225 -0.22929761
000330 fa 4a 09 3e 1a f5 7b bd ca ea 69 be da 5f 64 bc
       0.13407508 -0.061513044 -0.22843471 -0.013938868
000340 d7 c5 98 3d f5 28 aa bd 12 f8 80 3a 06 f6 aa be
       0.0745961 -0.08308593 0.0009839556 -0.33390826
000350 4d 8a a0 3e 7b 2b 15 bb f4 2a ba 3d 86 93 bc bd
       0.31355515 -0.0022761512 0.09090224 -0.09207825
000360 35 db 37 bd a5 d8 90 3c 72 b5 8c 3c af 2e 79 bd
       -0.044886786 0.01768143 0.017176364 -0.060835537
000370 e2 5a 15 3d 6b ed c2 bc 7b 89 d4 3e 38 eb aa be
       0.036463626 -0.02379485 0.4151114 -0.33382583
000380 5b f1 50 3c e9 4c 7c be f2 11 98 3e 69 5a 9b 3e
       0.012752856 -0.24638714 0.2970119 0.30342415
000390 7c 39 b6 3d e3 25 f5 bd 50 9d a6 bd 84 f1 10 3b
       0.08897683 -0.11970117 -0.08135474 0.002211661
0003a0 f2 70 5c ba a4 28 20 bc 76 a0 68 3a 0a 43 59 bd
       -0.0008409164 -0.0097753145 0.0008874008 -0.05304245
0003b0 10 5f 8c 3d ce 45 43 bb f7 96 0d bd b4 b7 89 3b
       0.06854069 -0.0029796246 -0.0345678 0.0042028073
0003c0 de e6 9b 3b 9e db b2 3e 84 84 ef be eb 0d 89 be
       0.004757746 0.3493318 -0.4678079 -0.2676843
0003d0 58 97 58 3e 1f c7 91 be 7e 63 41 3d 65 85 08 bd
       0.21151483 -0.2847223 0.047214024 -0.03333034
0003e0 af 1f 85 3d e7 38 77 be f9 bb 07 3e c5 72 1e be
       0.06500184 -0.241428 0.132553 -0.15473469
0003f0 cd 75 ae be f6 8e 5f be d2 d1 84 bd ea 0c a3 3c
       -0.3407425 -0.21831879 -0.064853325 0.019903619

cnn1.bias f4 [48]
000000 38 78 0d be 72 76 a4 be d0 36 4e bb 9f 3a 95 3e
       -0.13815391 -0.32121617 -0.0031465776 0.29146287
000010 1b 7d 54 3e 7b 81 9f 3d 8e 23 6c be 06 32 0f 3e
       0.20750849 0.07788368 -0.23060438 0.13983926
000020 78 74 09 3e 3b 69 47 be bb f1 7c 3e bc 08 9d 3e
       0.13423336 -0.19473736 0.24701588 0.30670726
000030 c3 f7 1a 3e ae 62 72 be 36 70 58 bd 93 5f 1f be
       0.15133576 -0.23670456 -0.052841388 -0.15563802
000040 e8 c1 63 be 88 d9 92 be b6 54 11 bd 6f b2 a8 3e
       -0.22241938 -0.28681588 -0.035481177 0.32948634
000050 63 73 71 3e 20 f2 3b 3e 1b 52 01 3e 76 6b 13 3e
       0.23579173 0.18354082 0.12628977 0.14396462
000060 d6 ec 71 3d b4 32 9d be 86 23 48 3e a3 37 2d 3e
       0.059063755 -0.30702746 0.19544801 0.16915755
000070 76 79 aa 3d 78 88 03 3e c6 34 f3 bd 8b 27 7f 3e
       0.08323948 0.12845027 -0.118753 0.24917428
000080 f0 c7 80 bd 93 ac 99 3e 96 07 39 bd fe db 6b be
       -0.06288135 0.30014476 -0.04517325 -0.23033139
000090 e3 7d 98 be e8 b0 a2 be c3 98 a2 be 2b f0 46 3d
       -0.29783544 -0.31775594 -0.31757173 0.048568886
0000a0 ab d0 21 bd cb 1f 4e 3d ee 87 30 3e 78 a2 4a 3e
       -0.039505642 0.05032329 0.17239353 0.1978854
0000b0 50 49 33 3e 2c f7 53 bd db 5a cc bd 23 7b 10 3e
       0.17508435 -0.051749393 -0.09978267 0.14109473

bn1.weight f4 [48]
000000 c8 40 76 3f 74 03 80 3f d0 a2 72 3f 2a 47 88 3f
       0.961926 1.0001054 0.9477968 1.0646718
000010 c2 c7 78 3f fa 80 85 3f c2 c9 79 3f ee 30 72 3f
       0.97179806 1.0429986 0.97573483 0.9460591
000020 41 91 7f 3f 2a 33 81 3f f2 32 88 3f 97 62 84 3f
       0.99831015 1.0093739 1.0640547 1.0342587
000030 af 46 88 3f 31 ee 5e 3f 4f 1a 85 3f f0 73 6a 3f
       1.0646571 0.870822 1.0398654 0.91583157
000040 ca 60 87 3f 96 50 87 3f a7 7a 80 3f da 79 81 3f
       1.0576413 1.0571468 1.003743 1.0115311
000050 c6 1f 66 3f 12 73 7d 3f 7a df 5e 3f d0 d2 83 3f
       0.8989223 0.9900371 0.8705975 1.029871
000060 5d 34 79 3f f8 e6 84 3f 62 ac 7f 3f bd fb 79 3f
       0.97345525 1.0382986 0.9987241 0.9764975
000070 1f b4 78 3f b2 25 88 3f a7 e8 6f 3f c1 47 8a 3f
       0.9714984 1.0636504 0.93714374 1.0803148
000080 de 2f 81 3f 9a ba 69 3f 2a cc 7b 3f 3d da 77 3f
       1.0092733 0.91300356 0.98358405 0.9681738
000090 65 78 7d 3f 8f b1 78 3f 07 a9 72 3f 74 4e 86 3f
       0.9901183 0.9714593 0.94789165 1.0492692
0000a0 b9 81 6c 3f 98 08 85 3f 17 e1 93 3f cf d7 7c 3f
       0.9238544 1.0393248 1.1553067 0.987668
0000b0 1d 6d 6f 3f f7 49 84 3f 4c aa 8b 3f f6 82 7b 3f
       0.9352587 1.0335072 1.0911345 0.98246706

bn1.bias f4 [48]
000000 53 0d 89 be cc a9 d7 bc 18 c0 4e bd 3a b2 08 3d
       -0.26767978 -0.026326083 -0.050476164 0.033373095
000010 6c b2 a0 bc b8 6c 4f bd ec ae 89 bd cb b6 9e 3b
       -0.019616328 -0.05064079 -0.06722817 0.004843568
000020 ec 51 1f 3b a0 32 6f bc 0f e4 e3 bc ad 6d 62 bd
       0.0024310304 -0.014599472 -0.027818708 -0.055280376
000030 8d 2a cf bd 73 02 e6 bd fb af af bb 99 7f 14 be
       -0.10115538 -0.11230936 -0.0053615547 -0.145018
000040 3c b1 32 bd bc e9 4f 3d 74 ad 81 bc 12 fd 5f bd
       -0.043626055 0.050760016 -0.01582978 -0.054684706
000050 4d de 08 be af 56 2f 3d 6c 5b 52 be 62 de 89 bc
       -0.13366051 0.042807277 -0.20542687 -0.016829673
000060 2a 88 d7 bc 6d 43 13 bd 22 47 65 bc 47 11 84 3b
       -0.026310045 -0.035952974 -0.01399401 0.00403038
000070 cb 23 85 3d 03 b8 7c 3c 50 19 7a ba c0 e9 3b bd
       0.065009676 0.015424731 -0.0009540515 -0.04587722
000080 6f 81 28 bd 00 33 cc bd ed 45 58 bc 60 16 3e ba
       -0.041139062 -0.09970665 -0.013200265 -0.0007251259
000090 1e 58 7c bb 32 89 c5 bb eb 88 a6 bc 23 b8 86 bd
       -0.003850467 -0.006028318 -0.02032896 -0.0657809
0000a0 c0 5e 33 bc 2e 4e 21 bc 68 d9 35 bd ba 13 a9 ba
       -0.010947883 -0.0098453 -0.044396788 -0.0012899556
0000b0 d2 7b 0f 3d b8 4e 1c bd f3 e2 72 bc e6 73 b2 bc
       0.035030194 -0.03816101 -0.014824617 -0.02178378

bn1.running_mean f4 [48]
000000 1a 60 12 be 9d 28 a4 be 2a da 59 bb 87 3a 96 3e
       -0.14294472 -0.32062235 -0.0033241608 0.29341528
000010 b0 83 55 3e ff 1a a0 3d 69 b2 6d be e4 0c 0d 3e
       0.20851016 0.07817649 -0.2321259 0.13774449
000020 7e 95 09 3e c8 1b 45 be 7d b0 7c 3e f8 ef 9c 3e
       0.13435933 -0.19248879 0.246767 0.30651832
000030 ab 22 1a 3e a7 16 72 be 2b 7c 57 bd 49 22 21 be
       0.15052287 -0.23641454 -0.05260865 -0.15735735
000040 d3 ae 62 be 3d b7 91 be 36 5e 14 bd cb 46 a9 3e
       -0.22137003 -0.28460112 -0.03622266 0.33061823
000050 30 a3 71 3e 31 7a 3b 3e c6 a8 fe 3d e5 8f 13 3e
       0.23597407 0.18308331 0.12434535 0.1441036
000060 dd 73 70 3d 42 88 9d be 2a 69 48 3e d7 10 2f 3e
       0.058704246 -0.3076802 0.19571367 0.17096268
000070 5f 15 ab 3d 33 85 05 3e 70 66 f1 bd a5 fe 7e 3e
       0.083536856 0.13039093 -0.117871165 0.24901827
000080 37 ad 81 bd 4a e3 99 3e 88 be 33 bd c3 a8 6d be
       -0.06331866 0.3005622 -0.043882877 -0.23208909
000090 24 8c 98 be 82 e4 a1 be a1 2c a3 be cd 85 4b 3d
       -0.2979442 -0.3161965 -0.31869987 0.04968815
0000a0 d0 3e 1f bd bc 4e 3e 3d d9 98 30 3e 5d 53 4b 3e
       -0.038878262 0.046461806 0.17245807 0.1985602
0000b0 5c 3f 30 3e c9 e8 53 bd 9c 14 cc bd f0 8e 13 3e
       0.1721167 -0.051735673 -0.099648684 0.14409995

bn1.running_var f4 [48]
000000 0e aa 3d 3f 3c 96 d4 3e be 5d 31 3f 38 30 9d 3e
       0.7408761 0.4152087 0.69283664 0.3070085
000010 f5 bd ba 3e 7d cd 8f 3e b7 45 76 3f a1 9a f6 3e
       0.3647305 0.28086463 0.96200126 0.48164847
000020 7a 63 f2 3e 07 a1 ce 3e 3c 64 8d 3e 14 b6 cd 3e
       0.4734152 0.4035723 0.27615535 0.40177977
000030 aa 1b 01 3f 5e 92 48 3f 78 42 bb 3e 0c 09 e4 3e
       0.50432837 0.7834834 0.3657415 0.44538152
000040 cc 7c 00 3f 81 5d 13 3f 17 5e ac 3e 23 8a c8 3e
       0.50190425 0.5756455 0.33665535 0.3916789
000050 63 15 6b 3f bd d0 c0 3e e9 cc 68 3f 45 96 81 3e
       0.9182951 0.37659255 0.9093767 0.2530996
000060 1e fa db 3e 42 91 a4 3e 21 56 0b 3f 05 a0 ff 3e
       0.42964262 0.32142073 0.544283 0.49926773
000070 c7 f8 e2 3e 9f 55 a7 3e fe d9 fe 3e c5 3f cd 3e
       0.44330427 0.3268251 0.4977569 0.40087715
000080 30 7c 02 3f ce c9 f0 3e 48 b7 f4 3e 49 87 e1 3e
       0.50970745 0.47028965 0.47796082 0.44048527
000090 02 98 49 3e 34 ac cd 3e af 74 12 3f ea 6f e2 3e
       0.19686893 0.40170443 0.57209295 0.4422601
0000a0 a2 11 02 3f 3e b7 18 3f 49 c1 88 3e 7c 8d a3 3e
       0.50808156 0.59654605 0.26709965 0.31943882
0000b0 1f 77 3b 3f 56 7e 82 3e a5 a8 aa 3e 17 58 35 3f
       0.7322864 0.25487012 0.3333179 0.7083754

cnn2.weight f4 [96, 48, 3, 3]
000000 46 fd eb 3b ec 8b 85 3c f9 be 6e bb ce 70 73 3b
       0.0072018234 0.016302072 -0.0036429747 0.0037146094
000010 02 4e 66 3d 39 5d c0 bc b3 80 76 3b 05 e3 72 bd
       0.056226738 -0.023481952 0.0037613332 -0.059298534
000020 9c b2 ba bd 35 d9 86 3c b8 22 0b bd b3 4c 4a bd
       -0.09116098 0.016460994 -0.033968657 -0.049389552
000030 c0 9d 45 bc e6 02 67 3c 63 6f 42 3d b3 ce 41 bd
       -0.012061536 0.014099812 0.047469508 -0.047316264
000040 de a1 98 bd 93 6a c0 bd 92 b4 5c 3b 10 ce 08 3d
       -0.07452749 -0.093953274 0.0033676964 0.03339964
000050 7d b1 8f bc b1 8c 87 bc de 55 80 3c f6 82 b4 bc
       -0.017540688 -0.01654658 0.015665945 -0.022035103
000060 75 44 7a 3c 15 1d 2b 3d 24 bd a0 ba ff ae c5 3a
       0.0152751105 0.04177578 -0.00122634 0.001508206
000070 a7 58 72 bc 23 3e 21 3d f2 ac 2d bc e6 5f 22 3c
       -0.014791644 0.0393659 -0.010600315 0.009910559
000080 1c e1 05 3d ac ff 80 bc ed ed dc bc 21 13 2f bd
       0.032685384 -0.015746914 -0.02696892 -0.042742852
000090 ed 98 37 bc 99 db 06 bd b7 44 63 3b dd 06 5e ba
       -0.011205894 -0.03292427 0.0034678408 -0.00084696506
0000a0 51 9b eb bb 11 1e cd ba b1 86 2f bd dc 53 90 bd
       -0.007190146 -0.0015649219 -0.04285306 -0.07047245
0000b0 de f1 ae bd 4f 6a fd 3c 89 95 dc 3c 9a 6f cb bb
       -0.08542226 0.030934481 0.026926773 -0.0062083723
0000c0 c8 2f ad 3b c0 1b 4b bb 47 4c 5f bc 9c 2a 87 bc
       0.005285237 -0.0030991882 -0.013629026 -0.01649981
0000d0 22 b8 fd bc e9 fb d1 bc a1 2e 0e 3c 5e fb 24 3d
       -0.03097159 -0.025632815 0.008678109 0.040278785
0000e0 8d 30 e1 bc fe d0 37 3d 10 34 3c 3d ff 9f a4 3c
       -0.027488971 0.044877045 0.04594809 0.020095823
0000f0 b5 22 02 bd 46 34 17 bd c6 92 3a bd 4e 79 5d 3c
       -0.03177138 -0.036915086 -0.04555013 0.013517691
000100 d5 47 1b 3c 88 91 63 bc a6 e6 fb 3c 11 74 a6 bc
       0.009477575 -0.013889678 0.03074963 -0.020319017
000110 f5 46 67 ba 27 37 74 bd 79 46 6f bd b2 78 91 bd
       -0.0008822524 -0.05962291 -0.058416817 -0.07103099
000120 9f da 06 3b ae 24 c8 bc bc c0 01 3c 2b 66 21 3b
       0.0020577086 -0.024431553 0.007919487 0.0024627547
000130 5f 08 af 3d fc dc 07 3d 49 3a 11 3d c9 3c dd 3c
       0.085465185 0.03316973 0.035455976 0.027006524
000140 5e b8 d0 3b 16 c4 05 3d 37 23 c1 3c 14 57 e0 3b
       0.0063696345 0.032657705 0.023576362 0.006846318
000150 be 24 64 3b b6 4c 7f 3b d4 45 31 3b cf cd 57 bd
       0.003481194 0.0038955635 0.0027049677 -0.05268651
000160 ee 28 c7 bd 6c 3a d2 bd 84 bb 06 bd 21 d1 f4 3c
       -0.097246036 -0.10265049 -0.032893673 0.029884877
000170 d2 eb 07 3d 80 22 af 3b 53 fe 03 bd 6b c6 09 3c
       0.03318388 0.005344689 -0.032224964 0.008409123
000180 39 37 ee ba da 47 1c 3d e0 75 96 3c e7 09 91 bc
       -0.0018174417 0.03815446 0.018366754 -0.017704917
000190 e0 ad 61 bd bc 89 21 bb 77 07 26 bd db 27 d2 bc
       -0.05509746 -0.0024648746 -0.040534463 -0.02565377
0001a0 85 04 a3 3c 5c 91 52 bc 08 34 fd 3c 93 d0 74 bd
       0.019899616 -0.012852039 0.0309086 -0.059769224
0001b0 1b f2 bb 3c d7 05 a4 bc 53 0d 17 3d 2d 83 00 bd
       0.022942593 -0.020022316 0.03687794 -0.0313751
0001c0 de c5 30 3c 87 cb d6 3a e3 75 e9 3c ac d7 61 3d
       0.010789363 0.001638756 0.028498596 0.05513732
0001d0 87 62 a3 3b 6e 28 3b bd f5 af d0 3c c1 d0 5e 3c
       0.0049861106 -0.045692854 0.025474528 0.0135995755
0001e0 8b 4e 1f 3d 4d 94 72 bc 34 24 72 bc ec e3 c3 bc
       0.038893264 -0.0148058655 -0.014779139 -0.023912393
0001f0 a3 12 2c bd a0 0c 84 3b 5a da 4a b8 56 2d dc 3c
       -0.04200996 0.0040298253 -4.836391e-05 0.026877087
000200 2c d6 c3 3a 80 03 27 3c 26 6d ed 3b d3 9a 23 bd
       0.0014941148 0.010193706 0.0072456775 -0.039942574
000210 75 33 5c ba cc ba 9e 3c 3a f2 9e 3c d6 1c 20 bd
       -0.00084000017 0.019376181 0.019402612 -0.03909
000220 68 7e 39 3c b2 73 8e bc 52 e1 b5 3b 57 fb b3 3c
       0.0113216415 -0.017389152 0.005550542 0.021970434
000230 6e ab db 3c 9a fc 64 3c 9f 18 a1 3c ec b7 94 3c
       0.026815142 0.0139762405 0.01966506 0.018154107
000240 85 d6 29 3d fd 63 2c 3d dd 08 a3 ba 4e cf 8a bc
       0.041464347 0.042087544 -0.0012438555 -0.016944554
000250 16 b5 13 3d 46 a0 ae bb 5c b4 45 bd a1 ba ec bc
       0.03606137 -0.0053291647 -0.048267707 -0.028897585
000260 4b 57 18 3d c9 13 b9 bb a1 56 89 3a ec 52 42 3d
       0.037192624 -0.0056481105 0.0010478088 0.04744236
000270 97 53 e8 3c b0 1a 80 3d dc c3 9e bc 4c e4 46 3d
       0.028360171 0.0625509 -0.019380502 0.048557565
000280 36 7f 8f 3c a8 a8 f7 3b bb 04 b3 3b 40 de 9c bc
       0.017516714 0.007557947 0.0054632104 -0.019148946
000290 35 df db 3b 3f 20 40 bd e0 ef 05 3c 08 2d 14 bd
       0.006709958 -0.046905752 0.008174866 -0.036175758
0002a0 b7 86 8d bc d5 8e a7 bd bc 65 22 bd e7 ff 36 3d
       -0.017276151 -0.0818154 -0.039647803 0.04467764
0002b0 e9 5c 1c bc 46 7b af 3c 78 17 16 3c 6b 59 e4 ba
       -0.009543636 0.021421086 0.009160869 -0.0017421668
0002c0 5d ed 26 3d 52 42 38 3c db 59 a1 bc ab ea 0f 3c
       0.04075371 0.011246281 -0.019696167 0.008783977
0002d0 af 2e 14 3d a6 a4 00 3d c4 b5 c3 3c d9 ca 05 3d
       0.036177333 0.03140702 0.023890384 0.032664154
0002e0 e4 12 4b 3c 15 d2 b5 bc 79 3d 30 3c 22 b3 9c bc
       0.012394641 -0.022194901 0.010756844 -0.019128386
0002f0 cd c3 93 39 e4 6c 09 3d 41 8f cf 3c e9 90 c1 bb
       0.00028183908 0.03355111 0.025336863 -0.005907167
000300 3b 1c 18 3d 0f 67 ac bc 1c a2 86 3b bb aa 87 3d
       0.037136298 -0.021045236 0.0041086804 0.06624361
000310 46 83 d7 3c 7b 97 40 3d b8 f7 80 bc a4 40 c6 3c
       0.026307713 0.047019463 -0.015743122 0.024200745
000320 f1 76 74 bb 92 b1 5b 3c e1 2f 43 3c 88 47 ea 3c
       -0.003730234 0.013409035 0.011913271 0.028598562
000330 28 f7 b1 3c 2c 55 87 bc 7a 5e 4d 3d f1 50 ef ba
       0.021724299 -0.016520105 0.050138928 -0.0018258375
000340 8b 8d f4 bb be b8 06 b9 7a b8 e5 bc b8 52 9c 39
       -0.0074631623 -0.00012848058 -0.028042067 0.0002981627
000350 ca b8 e5 3c cd fd 92 bc 0f 55 33 bb 11 88 78 3b
       0.028042216 -0.017943287 -0.0027363931 0.0037922899
000360 f6 f2 90 bc 10 5c 9d 3b f2 d1 bb 3c 45 46 c2 3b
       -0.017693978 0.0048022345 0.022927258 0.005928787
000370 eb 05 dc 3c 36 a1 44 bc b9 32 7c bd a7 77 0a bd
       0.02685829 -0.012001326 -0.06157181 -0.033805516
000380 56 d8 57 bd 37 1e c6 3c af 37 8a bb 0d 06 c1 bb
       -0.05269655 0.02418433 -0.004218064 -0.005890614
000390 9c 08 ea 3c 60 9c e6 3c f7 0e 28 3d 3a 89 97 3c
       0.028568558 0.028150737 0.041029897 0.018498052
0003a0 47 fe d6 bc 50 3c 51 bc af 34 83 3c b9 d4 39 bd
       -0.026244296 -0.012770727 0.016016332 -0.045368884
0003b0 55 53 3f 39 a5 8b e4 3b ef 04 32 bc 09 1b c8 bb
       0.00018246223 0.0069746547 -0.010865434 -0.0061067385
0003c0 38 a1 85 bd 53 2a 5a bd bd 2d 9e bd 3e 1e d5 3c
       -0.06524891 -0.05326302 -0.07723568 0.026015397
0003d0 15 1e e5 3c 94 c7 a4 3c 06 33 a6 bc a5 f3 aa 3c
       0.027968446 0.020114698 -0.020288002 0.020868132
0003e0 01 0b dd 3c 8d 4e 1c ba 30 18 75 bd df 64 b5 bd
       0.026982786 -0.0005962633 -0.05983752 -0.0885713
0003f0 d6 a2 83 bc eb 59 06 bd 64 31 c2 3c 04 4d e5 3c
       -0.016068857 -0.032800596 0.023705192 0.027990825

cnn2.bias f4 [96]
000000 3f 28 0d bd de c7 0a 3d 71 15 29 3d 2c 50 d0 bc
       -0.03446221 0.033882014 0.041280214 -0.025428854
000010 56 7c 5d bb da 77 3a bd 2f 3a 83 3b ca ea ba bc
       -0.0033796034 -0.045524456 0.0040047388 -0.022817034
000020 05 d7 44 3d f9 a5 43 3d 3b e2 f9 bc a2 c6 aa 3c
       0.04805662 0.047765706 -0.030503383 0.020846669
000030 e6 30 9a bc d5 f1 b0 3c 9c 37 93 bc 3d b8 25 3d
       -0.018822145 0.02159969 -0.017970853 0.040458906
000040 be a8 b1 bc 87 2a 3c 3d ad 8e 44 bc 86 a0 12 bc
       -0.021686908 0.045938995 -0.011996907 -0.008949405
000050 9e 7a c5 bc 83 86 3c 3c 14 94 18 bd a0 cd d8 ba
       -0.02410632 0.0115066795 -0.037250593 -0.0016540773
000060 c9 37 0b bc 5f fa 0c 3d 3c 8e 38 bd 00 c6 39 bd
       -0.008497187 0.03441846 -0.04505752 -0.045354843
000070 6e 23 f2 3c 86 ef 39 bd da 9b 25 3d 91 cd 87 3c
       0.02955791 -0.045394443 0.040431835 0.016577514
000080 0f 38 bb bb f0 b2 41 3d 63 19 90 bc a3 e2 9a bc
       -0.00571347 0.04728979 -0.01759023 -0.018906897
000090 b7 fb 42 bd 87 30 08 bd ae 21 d8 bc 30 a4 fe bc
       -0.047603335 -0.033249404 -0.026383247 -0.03108415
0000a0 c2 0f c1 3c d3 bc 2e bd 8e d1 df ba b2 76 9f 3c
       0.023567084 -0.042660546 -0.0017076002 0.019465778
0000b0 49 70 3e bd 51 a5 02 bd 9f 41 19 bc 25 61 a7 3c
       -0.046493802 -0.03189594 -0.009354024 0.020432064
0000c0 a5 e7 1d 3b f2 e3 00 3d ec cb df 3c ba ad 3c bc
       0.002409437 0.031467386 0.027318917 -0.011516029
0000d0 d5 09 3e bd f6 3b 3f bd 45 67 89 3c c3 8c 2b 3d
       -0.046396095 -0.046688043 0.016772876 0.041882288
0000e0 91 c3 aa 3c 98 a3 9b 3c d3 7d b4 bb f6 9a 4a bc
       0.020845206 0.018998906 -0.0055081635 -0.012366047
0000f0 74 5b 0a 3c 38 be b7 bc 04 5a ad bc a4 19 3d bd
       0.008444656 -0.02242957 -0.021161087 -0.04616703
000100 23 63 65 3c 15 35 09 bd a7 01 0a bd a5 f8 d1 bc
       0.014000687 -0.03349789 -0.033692982 -0.025631258
000110 e4 f7 24 bd 01 0a bd 3c b5 4a 1e bd ac 9c f9 bc
       -0.04027547 0.02307606 -0.038645465 -0.030470215
000120 76 b4 18 3d 56 b0 95 bc bb e5 06 3d c3 a5 ee bb
       0.037281476 -0.01827256 0.03293393 -0.007282944
000130 48 3c 30 b9 09 57 16 3c d6 5b 8d 3c 1c eb 1b bc
       -0.00016807124 0.009176024 0.017255705 -0.009516504
000140 b2 34 37 bd a7 c5 30 bd 2e 6f e3 bb 77 19 ca bb
       -0.04472799 -0.043157246 -0.006940744 -0.0061675864
000150 24 9b d5 3c 6b ed bb bc de dd 32 3d c8 12 87 3c
       0.026074953 -0.022940358 0.04366862 0.016488448
000160 2f 9f 57 bc f0 5c b4 3c a1 d4 fb 3c 17 21 27 bb
       -0.013160511 0.022016972 0.030741038 -0.00255019
000170 5d 71 82 3b 41 06 e3 bc 30 cc bd 3c ef d3 12 3d
       0.003980799 -0.027712943 0.023168653 0.035846647

bn2.weight f4 [96]
000000 18 24 91 3f fd 16 89 3f cc 56 97 3f e3 a8 85 3f
       1.133914 1.071014 1.1823363 1.0442165
000010 df 6f 87 3f 1b f6 8a 3f 25 ee 8d 3f c7 bd 9e 3f
       1.0581015 1.0856355 1.1088301 1.2401665
000020 d0 ee 87 3f 2b 6b a6 3f c3 68 83 3f a2 9e 89 3f
       1.0619755 1.3001455 1.0266346 1.0751536
000030 07 b5 84 3f 53 06 97 3f 40 49 a1 3f 7d 79 90 3f
       1.0367745 1.1798805 1.2600479 1.1287075
000040 1a ca 83 3f cd d5 89 3f 8c f5 8a 3f 91 be 89 3f
       1.0296052 1.0768372 1.0856185 1.0761281
000050 10 6b 81 3f a9 e9 89 3f dd 77 83 3f ff 44 87 3f
       1.0110798 1.0774432 1.0270954 1.0567931
000060 0e 62 8a 3f b8 ae a3 3f 2c c9 a6 3f ed e2 91 3f
       1.0811174 1.2787695 1.3030143 1.1397377
000070 70 44 8e 3f f5 ae 92 3f 19 2a a2 3f 21 df 93 3f
       1.1114635 1.1459643 1.2669097 1.1552469
000080 29 e8 8d 3f c8 4a 9a 3f ca da 91 3f f4 87 8d 3f
       1.1086475 1.2054071 1.1394894 1.1057115
000090 aa 5e 82 3f d0 43 8f 3f 3b 26 98 3f 12 a8 9f 3f
       1.0185139 1.119257 1.1886667 1.2473166
0000a0 bb b7 a6 3f 39 c2 85 3f 06 c5 8f 3f 1a bc 8b 3f
       1.302482 1.0449897 1.1232002 1.0916779
0000b0 58 06 7c 3f 89 00 85 3f d4 89 94 3f ae 03 88 3f
       0.9844718 1.0390788 1.1604562 1.0626123
0000c0 80 27 9a 3f b0 13 a0 3f 4a 28 91 3f a8 66 9c 3f
       1.2043304 1.2506008 1.134042 1.2218828
0000d0 49 fb 87 3f 30 bf 89 3f 4d dc 8b 3f 1c 9a 92 3f
       1.0623561 1.0761471 1.0926605 1.145328
0000e0 ec 19 88 3f 66 df 8a 3f 08 f1 90 3f 6b df 81 3f
       1.0632911 1.0849426 1.1323557 1.0146307
0000f0 72 1c 83 3f 95 03 8f 3f bd 93 8d 3f 0a a7 83 3f
       1.0243056 1.1172968 1.1060711 1.0285351
000100 52 90 91 3f 77 5c 89 3f ac 34 83 3f 00 38 8c 3f
       1.1372168 1.0731343 1.0250449 1.095459
000110 ca 74 a7 3f e0 38 93 3f 5d d5 85 3f 7f 61 82 3f
       1.3082516 1.1501732 1.0455738 1.0186003
000120 24 92 a0 3f 0e ab 90 3f 3e 2f 83 3f 9a 84 96 3f
       1.2544599 1.1302202 1.0248792 1.1759217
000130 cd 0b 8d 3f 43 25 8d 3f 73 73 8c 3f 67 69 8a 3f
       1.1019226 1.1026996 1.0972732 1.0813416
000140 a8 e8 8b 3f 95 bd a7 3f 31 cb 82 3f 05 fe 85 3f
       1.0930376 1.3104731 1.0218259 1.0468146
000150 fb 02 86 3f 51 93 8a 3f b7 b0 82 3f bb 75 98 3f
       1.046966 1.0826207 1.0210179 1.1910928
000160 91 b9 92 3f 78 2d 84 3f 07 08 8b 3f 28 85 9c 3f
       1.146288 1.0326376 1.0861825 1.2228136
000170 a5 f6 85 3f 8f 8f 9f 3f 87 81 80 3f 62 b6 9c 3f
       1.0465895 1.2465686 1.0039529 1.2243159

bn2.bias f4 [96]
000000 25 e0 01 3e 26 a1 fe bd 85 82 77 bd ce b4 d2 3d
       0.1268316 -0.124330804 -0.060427207 0.10288392
000010 73 5e eb 3d e9 3e 26 3e 75 e6 12 3e c0 20 97 be
       0.11492624 0.16234936 0.14345725 -0.29517174
000020 db 29 8e be 39 eb c4 be 83 cd e8 3d 9b 03 c9 bd
       -0.27766308 -0.3846071 0.11367323 -0.09815141
000030 1e bb 92 be bf dd 37 be 1a eb 87 be 5d 37 49 be
       -0.28658384 -0.17955683 -0.26546556 -0.19650026
000040 31 db 43 3e 50 af b3 3b 77 fb 7f bc b6 80 7d 3d
       0.19126584 0.0054835454 -0.015623919 0.061890326
000050 38 c8 3d 3e 62 50 9e be 5f bb 5e 3e 0d cf b7 3d
       0.18533409 -0.30920702 0.21751164 0.08975039
000060 9f 0d 96 3a 90 74 55 be 5f 74 a1 be cc 44 08 3b
       0.0011448151 -0.20845246 -0.31534097 0.002079296
000070 5f f8 8b be e6 b2 54 be a5 d3 e3 be b7 f8 01 3c
       -0.2733793 -0.2077137 -0.4449741 0.007932833
000080 e4 c3 d8 bc 66 5a 93 be 52 9e 9c bd b5 00 a4 bc
       -0.026460595 -0.28779906 -0.07647385 -0.020019868
000090 ee 54 66 3e 97 ce c0 3d 5f 56 11 be 65 3f 97 be
       0.22493336 0.09414404 -0.14193104 -0.29540554
0000a0 b5 8e d6 be c9 75 47 bd aa 0a 22 be 87 ec 06 3e
       -0.41905752 -0.048696313 -0.1582438 0.13176166
0000b0 e6 b2 59 3e eb 18 48 be 5a 20 a8 be 85 c9 27 3e
       0.2125965 -0.19540755 -0.32837182 0.16385467
0000c0 37 be 8c bd 13 0f 8f be 6b 30 bf bd a9 d6 23 be
       -0.06872218 -0.27941188 -0.09335407 -0.15999855
0000d0 3f 51 c2 3d ce 3b f7 3d 07 99 2b 3e 97 57 cb 3d
       0.09488153 0.12071954 0.16757594 0.09928816
0000e0 54 ed 38 3e 55 99 e6 3d cf 41 85 3c 20 45 2e 3d
       0.18059283 0.112597145 0.016266732 0.04254639
0000f0 72 53 62 be 17 42 c9 bc 79 24 30 3e 76 e1 3c 3e
       -0.22102144 -0.024567647 0.17201413 0.18445382
000100 e2 aa d0 bd 7d 73 3b 3e eb 90 3a 3e 9a 83 77 be
       -0.10188843 0.18305774 0.18219344 -0.24171296
000110 e2 72 b0 be 8f c3 b5 3d 0b 68 76 3d 8b 06 92 be
       -0.3446265 0.088751905 0.060157817 -0.28520617
000120 29 0a 45 be 2a b1 dd 3d 77 2a 77 be 75 d5 49 be
       -0.19242157 0.10824807 -0.24137293 -0.19710334
000130 81 9a 95 bd fa 69 4e 3d 74 c1 96 bd 4e 85 41 be
       -0.0730486 0.050394036 -0.07361117 -0.18898508
000140 93 ea 17 3e da a5 d1 be b4 97 3f 3e b1 47 20 bc
       0.14835577 -0.40946847 0.18710214 -0.009782718
000150 2b 8f 83 be 38 e8 aa bd 67 d7 1b 3d a0 e6 34 3d
       -0.25695166 -0.083450735 0.03804722 0.044165254
000160 bb e3 28 be 6d 52 8c 3d a7 58 a0 bb 7e 10 ab be
       -0.16493122 0.06851659 -0.0048933807 -0.3341102
000170 c2 4c 8c be 31 7d ca be 65 01 f5 3d c0 fe 23 be
       -0.27402312 -0.39548638 0.119631566 -0.16015148

bn2.running_mean f4 [96]
000000 ba 0b b0 bf 0f 0b 35 40 45 be 6e bf 68 30 07 bd
       -1.3753579 2.8288 -0.9325908 -0.03300515
000010 15 d7 c7 3e 33 eb e2 be 35 c2 53 bf b4 c8 f3 bf
       0.39031282 -0.44320068 -0.8271821 -1.9045625
000020 66 e7 23 bf 0c aa 06 c0 e5 f8 6e bd 54 ae 35 bf
       -0.6402496 -2.1041288 -0.058342833 -0.7096913
000030 7e ce 62 40 d7 1d d8 bf 51 b9 31 c0 a8 af 02 bf
       3.5438533 -1.6884106 -2.7769358 -0.5104928
000040 69 04 c9 bf 11 76 6a bf a1 13 c2 3f 9f 4d ad 3f
       -1.5704471 -0.91586405 1.516224 1.3539313
000050 ac 3d 1b 3f 57 60 c8 be d4 e6 69 3e 5e 01 51 be
       0.6064098 -0.39136 0.2284196 -0.20410678
000060 4d 7a 19 40 08 cc d8 bf 6e e7 18 c0 f7 ff d2 bf
       2.3980896 -1.6937265 -2.3891253 -1.6484364
000070 ff 5f 19 bf f1 73 4b bf 68 da 2e c0 79 37 03 3c
       -0.59912103 -0.7947379 -2.7320805 0.008008831
000080 1a dc 42 bf 71 14 31 c0 69 47 7e 3f 82 a2 19 bf
       -0.761171 -2.7668726 0.99327713 -0.6001359
000090 ed 8e 2e 3e d5 fc b0 bf 67 61 23 c0 43 9a f5 bf
       0.1704671 -1.3827158 -2.55282 -1.9187702
0000a0 ba 43 ff bf ba d1 99 3f 24 cf 3d bf 1f 6b d4 bd
       -1.9942544 1.2017128 -0.74144197 -0.10371994
0000b0 97 ae a2 bd ac 10 fc 3f 01 a7 37 c0 02 37 4a 3e
       -0.079434566 1.9692588 -2.869568 0.19747546
0000c0 10 6e da be 20 23 0d c0 1f 83 18 bf ee 1b fe bf
       -0.42662096 -2.2052689 -0.59575075 -1.9852273
0000d0 67 67 9c be f9 ea 8e bf 7c f3 90 bf ff f3 5a bf
       -0.3054764 -1.1165458 -1.1324306 -0.8552856
0000e0 7e 33 81 bd 88 db 88 bc 63 6b 5f be 8e ba 9c bd
       -0.063086495 -0.016706243 -0.21818309 -0.0765277
0000f0 98 8b 1b bf 6a cb 6f be 8e 55 43 3c ed 7b 1f 3f
       -0.6075988 -0.2341744 0.011922253 0.6229847
000100 55 3b 01 be a3 1d 8b bf de 35 01 3f e2 26 46 40
       -0.1262029 -1.086842 0.5047282 3.0961232
000110 0a 16 07 c0 91 fc b9 bf b0 38 9e 3e ab ad 6e 3f
       -2.1107202 -1.4530202 0.30902624 0.93233746
000120 c7 49 50 c0 b2 a0 57 bf 2f ff dd 3f db 70 26 bf
       -3.254503 -0.84229577 1.7343501 -0.65015954
000130 36 b0 df be d7 fb 79 be 8f d4 ad be 9b 11 04 40
       -0.43689126 -0.24412476 -0.33951232 2.0635746
000140 43 f9 fb 3c 6e 86 27 c0 63 f7 56 be e6 b7 5f be
       0.030758506 -2.61758 -0.20992808 -0.21847495
000150 7d d7 59 40 36 aa de be a4 59 af be 2e e8 6f bf
       3.4037774 -0.43489236 -0.34248078 -0.93713653
000160 62 94 3d 40 0a cd c6 3f 42 f0 8d 3f 26 bf 47 c0
       2.9621816 1.5531323 1.1088946 -3.1210418
000170 46 93 e1 3f 1c ff 0e c0 31 52 54 bd dd ce b0 bf
       1.7623069 -2.2343206 -0.051836196 -1.381313

bn2.running_var f4 [96]
000000 fa 1e b0 40 11 8a 8e 40 62 3b 50 40 87 53 f5 3f
       5.5037813 4.454354 3.2536244 1.9166116
000010 c2 e8 09 40 b9 b0 50 40 62 e8 72 40 91 06 c4 40
       2.1548314 3.2607863 3.7954335 6.1258016
000020 94 3b ad 40 53 b0 8f 40 c8 c9 f6 3f 9e 4a 4b 40
       5.4135227 4.490274 1.9280329 3.1764293
000030 b4 05 d7 40 45 45 c5 40 29 b0 84 40 9a b4 9c 40
       6.719446 6.1647058 4.146504 4.897046
000040 90 bf 39 40 d8 14 33 40 c8 4a 39 40 b1 cb 58 40
       2.902317 2.7981472 2.8951893 3.3874323
000050 a4 59 cb 3f 2f fa 7f 40 cc 9e f3 3f 05 14 02 40
       1.5886731 3.999645 1.9032836 2.032472
000060 87 c0 87 40 af a0 72 40 8a af a1 40 88 6f 87 40
       4.242252 3.7910573 5.052678 4.2323647
000070 b7 1e 8b 40 dc bb 5d 40 f9 61 d0 40 02 72 65 40
       4.3474994 3.464591 6.5119596 3.5850835
000080 20 35 6a 40 ac 36 a2 40 ff a3 91 40 12 eb 6a 40
       3.6594925 5.069174 4.551269 3.6705976
000090 e5 f3 95 3f 75 54 4c 40 d5 09 b3 40 b0 4e 9d 40
       1.1715056 3.1926548 5.59495 4.9158554
0000a0 83 f3 cf 40 15 14 16 40 6f b3 46 40 94 4d 18 40
       6.4984756 2.3449757 3.1047018 2.379735
0000b0 9a 5a bf 3f a5 e0 5b 40 0a b3 c3 40 2a f8 5a 40
       1.4949524 3.4355862 6.1156054 3.4213967
0000c0 f7 53 97 40 5c a0 86 40 ac bc 6f 40 ad e2 ba 40
       4.7289996 4.207075 3.7458906 5.8401704
0000d0 98 76 10 40 f7 02 2b 40 66 68 3f 40 42 1d 54 40
       2.2572384 2.672056 2.990747 3.3142858
0000e0 a8 04 8d 40 fe 92 22 40 63 d3 3f 40 2b 74 df 3f
       4.4068184 2.5402217 2.997277 1.7457327
0000f0 b2 3b 55 40 9c 51 18 40 65 2d 2d 40 bf f2 14 40
       3.3317685 2.379981 2.7058957 2.327316
000100 07 a3 9b 40 ec 4c 69 40 61 09 c4 3f ab d6 a8 40
       4.863651 3.64532 1.5315362 5.2762046
000110 bc 61 a4 40 86 4a 93 40 ff db 2c 40 04 f0 50 40
       5.1369305 4.602847 2.7009275 3.2646494
000120 35 f7 ac 40 1b f6 4b 40 8a ee 62 40 8e ca 43 40
       5.4051766 3.186896 3.5458093 3.059238
000130 f0 86 36 40 c7 1e 21 40 e4 85 8f 40 e3 98 65 40
       2.851986 2.5175035 4.485094 3.5874565
000140 32 8c f4 3f 48 ba c3 40 1e 2e 4c 40 f7 f5 17 40
       1.9105284 6.1164894 3.1903148 2.3743875
000150 35 a4 aa 40 58 3e 3b 40 57 5b f9 3f 22 0e 92 40
       5.332545 2.9256802 1.9481 4.564225
000160 3e d1 b1 40 e6 97 2c 40 fa 29 49 40 e9 3d ce 40
       5.5567923 2.6967711 3.143187 6.4450574
000170 0c 4b 5c 40 d8 db bb 40 2f f9 d9 3f be f6 94 40
       3.4420805 5.8705864 1.702917 4.65512

classifier.weight f4 [7, 2304]
000000 47 19 28 bd 64 61 01 bb ba 98 b0 bc 2f a7 bd bc
       -0.04103973 -0.0019741887 -0.0215572 -0.023151008
000010 cc e2 09 bd f5 44 e2 bb 4c 11 e6 3b d2 ad 91 3c
       -0.033663556 -0.006905193 0.007021105 0.01778308
000020 79 8c 99 3c 1f f9 58 3d 35 e8 31 3c 68 fa b5 3b
       0.01874374 0.052971955 0.010858585 0.0055535324
000030 11 f4 3e 3d 2d 63 7e 3d 57 65 d7 3c e2 37 42 3d
       0.04661948 0.0621063 0.02629344 0.047416575
000040 88 60 a7 3d 75 cf 4d 3d 6c a7 c2 bc 33 28 ca ba
       0.08172709 0.050246675 -0.023761474 -0.0015423357
000050 8e d8 90 3c 4f bd ac bb 43 e0 22 bc a0 73 ab bb
       0.017681386 -0.005271591 -0.0099411635 -0.0052322894
000060 ad fe 09 bd 9c 9a 30 bc 86 47 85 3c 1e 62 10 bd
       -0.033690143 -0.010779049 0.016269457 -0.03524982
000070 9b ba 1c ba 8a 00 cb bc 7d f3 8d 3c 6a e4 e3 3b
       -0.0005978734 -0.02478053 0.017328018 0.0069547193
000080 8e ba 03 3d b6 77 8a bc 4b 69 22 3c 55 eb 38 3c
       0.032160334 -0.016902786 0.009912799 0.011286576
000090 fc 63 b7 bb 20 17 5d bc 6b b1 23 3d 62 9b ee ba
       -0.005596636 -0.013494283 0.03996412 -0.0018204267
0000a0 e4 ff 38 3b aa aa fc bb a9 0d 11 bc ba 96 e5 bc
       0.0028228695 -0.0077107744 -0.0088533545 -0.028025974
0000b0 c3 fa 67 bc de ab df ba c2 f8 e7 bb 38 81 91 bc
       -0.014158907 -0.001706477 -0.007079215 -0.017761812
0000c0 30 56 99 bd 87 68 ad bc 07 a4 d2 bc 50 05 05 bd
       -0.07487142 -0.021168007 -0.02571298 -0.03247577
0000d0 99 31 3c 3c 51 c6 84 bd dc fb 38 bd ab ce 8f bd
       0.011486434 -0.06483138 -0.045162067 -0.07021841
0000e0 00 bb a4 bd 55 ec 97 bd 37 0a 1b bd 51 36 f8 bd
       -0.0804348 -0.07418124 -0.03785154 -0.12119735
0000f0 62 03 9f bd b2 61 04 bd 55 4b 37 bd f8 53 5b bd
       -0.07764317 -0.032319732 -0.044749577 -0.053546876
000100 ff ab 75 bc c5 52 56 ba 50 87 1f bc eb 24 b0 bc
       -0.01499462 -0.0008175786 -0.009736851 -0.021501979
000110 00 72 8d ba dd 4e 3c bc e6 c5 9b bc 86 6e 4b 3c
       -0.0010791421 -0.011493412 -0.019015264 0.012416488
000120 19 d4 9c bd f6 0d 79 bd 52 49 8f bd 5d 25 9f bd
       -0.07657642 -0.06080433 -0.069964066 -0.07770798
000130 47 b9 78 bd b4 40 81 bd 64 26 74 bd 28 f6 5a bd
       -0.06072357 -0.06311169 -0.059606925 -0.05345741
000140 c7 52 82 bd dd f9 c4 bc 77 3f 90 bc 06 0d a5 bd
       -0.06363445 -0.024044925 -0.017608387 -0.08059125
000150 32 58 c3 b9 46 f9 03 3a 21 f5 c9 bc e7 b3 0f bb
       -0.0003725901 0.0005034398 -0.02465302 -0.0021927299
000160 d2 56 3b bd 75 4b 74 bd 23 ef 1d bd fc fa 59 bd
       -0.045737095 -0.059642274 -0.038558137 -0.053217873
000170 91 11 c6 bc 92 36 47 bd b8 02 5d bd 97 65 05 be
       -0.024178298 -0.048636027 -0.05395767 -0.13027035
000180 77 b6 54 bd 01 e2 80 bd 05 9d 00 bd 13 63 1b 3c
       -0.051931825 -0.06293107 -0.031399745 0.00948407
000190 1a d1 39 bd cf a6 96 bd 3a 20 91 bd 4e 09 4e 3c
       -0.04536543 -0.07356035 -0.07086225 0.012575461
0001a0 67 01 d2 3b f7 a9 54 bc 07 4d d4 bc 7f 1b b5 bb
       0.0064088586 -0.012979976 -0.025915636 -0.0055269594
0001b0 33 81 8d bd 13 f5 0e bd 86 3d a6 bc 41 31 36 bd
       -0.069094084 -0.03490169 -0.020293009 -0.044480566
0001c0 7f a7 be bd db b9 2c bd 05 16 3c bd 02 54 41 bc
       -0.09309291 -0.042169433 -0.045919437 -0.011799814
0001d0 82 a7 61 bd a8 cc e1 3a 99 e8 13 bd 96 ef 82 bd
       -0.05509139 0.001722713 -0.036110494 -0.06393354
0001e0 86 9b f0 bd 43 8b f5 bd 5c 36 85 bd bc bc df bd
       -0.11748414 -0.11989453 -0.06504509 -0.1092467
0001f0 22 af d5 bd a0 87 b4 bd 9b ff 9b bd 3a de 24 bc
       -0.104337946 -0.08814931 -0.07617112 -0.010062749
000200 91 cf 16 bd 3e cf 3f bd 1e cf ca bd e0 cd ec 38
       -0.036819045 -0.0468285 -0.09902786 0.00011291704
000210 7c b0 a5 3c 6a 29 c2 bc a6 d0 26 3b b5 c1 ba bc
       0.020225756 -0.023701388 0.0025453954 -0.022797445
000220 b6 61 52 3c 0d f2 fb 3c 46 84 88 bd b5 2c 63 3c
       0.012840679 0.030755067 -0.06665854 0.013865639
000230 d3 84 84 bc 91 58 44 3c 72 49 95 bc 67 c6 f9 bc
       -0.016176617 0.0119840065 -0.018223498 -0.030490113
000240 a5 31 4f bd d4 a6 34 bd 13 8a 8a bd 5e 6a b1 bd
       -0.050584454 -0.044104412 -0.06764617 -0.08662866
000250 51 21 8c bd 17 5c 10 bd 80 2f 81 3c c8 e6 56 bb
       -0.06842292 -0.035244074 0.01576972 -0.0032791365
000260 ed 34 88 3b 3e c9 94 3c fa 17 0c 3d 87 58 c6 3c
       0.0041567 0.018162366 0.034202553 0.024212135
000270 25 2b 9b 3c 5f 08 05 3d 67 10 80 bc bd 21 04 3d
       0.018941471 0.032478686 -0.015632821 0.032258738
000280 cd c3 e8 3b 93 09 32 3c aa 42 f2 bc f3 9c aa 3b
       0.0071034194 0.0108665405 -0.029572804 0.005206698
000290 57 3a 18 bd 0c 8a 9f bc 0f 77 10 bd ae b0 a7 bd
       -0.037165012 -0.019475006 -0.035269793 -0.08187996
0002a0 0c 5f 26 bd 16 c4 bc bb e4 c8 90 bc 69 65 05 bd
       -0.040617988 -0.00576068 -0.017673917 -0.032567415
0002b0 d4 ef 97 bb 2c fa 92 ba d9 9d 25 bc 94 fd c1 bb
       -0.004636744 -0.0011213473 -0.010108435 -0.0059201214
0002c0 1e e4 06 bd b4 42 2d bc 5e 64 ea bc 61 83 e8 3c
       -0.032932393 -0.010574985 -0.028612312 0.028382959
0002d0 1b 12 8d 3c e9 43 91 3d 6e 0f 35 3d 2e 2e 16 3d
       0.017220547 0.07093031 0.044204168 0.036665134
0002e0 5c 74 ae 3d 97 b4 cc 3d a1 a9 76 3d f9 b2 a9 3d
       0.085182875 0.09995382 0.060220364 0.082860895
0002f0 2d 53 65 3d d8 35 b2 3d c4 c2 1c 3d 9c 9b 01 3e
       0.055987526 0.08701676 0.03827168 0.12657017
000300 ea 9d d3 3c 16 76 07 bb a5 33 f2 3c 0e 8f 3d bd
       0.025832135 -0.002066975 0.029565642 -0.046279006
000310 a5 b2 9f bb ad f0 6e bd 86 06 bd 3c 24 e8 a2 3b
       -0.004873591 -0.058334995 0.0230744 0.004971521
000320 37 31 bf bb e7 8d af bc 0e 5a 42 3c 4d 5a e1 ba
       -0.0058347243 -0.021429969 0.011862291 -0.001719305
000330 6e 6c e3 3c ab 0c 7f 3c 81 12 9a 3c 75 59 82 3b
       0.027761664 0.015566985 0.018807651 0.0039779493
000340 ed 6c c4 bb 73 f2 40 bd 70 f5 87 bc 58 37 5c bc
       -0.0059944303 -0.047106218 -0.016596526 -0.013440929
000350 62 f2 36 3a d4 06 08 bd 83 40 a1 bb 8f b7 ba bd
       0.0006978867 -0.033209637 -0.0049210205 -0.09117042
000360 ed 30 8a 3d 19 02 dd 3d 7f a8 97 3d 0e 05 e6 3c
       0.06747613 0.10791416 0.07405185 0.028078582
000370 5d 0d 8a 3d be 18 f5 3d 78 fc 89 3d a7 5b 54 3d
       0.0674083 0.1196761 0.06737608 0.05184522
000380 9c 22 3e 3d ea 40 10 3d b9 cc 3b 3d 0d 34 bf 3d
       0.046419725 0.035218157 0.045849536 0.093361
000390 34 f5 c5 3d 8e 6e 01 3e 7d c8 b6 3d 22 5c a3 3d
       0.096659094 0.1263983 0.08924959 0.07976557
0003a0 0e 18 de 3d 1d 2f 08 3e 0f 9f 29 3e 8b 31 f7 3d
       0.10844432 0.13299222 0.16564582 0.120699964
0003b0 d7 e2 ca 3d 3b d5 b7 3d 05 52 ab 3d 71 73 32 3e
       0.099065475 0.08976217 0.08365253 0.1742685
0003c0 a5 63 ac bd 0b 44 65 bd 23 94 8b bd ae fe 9c bd
       -0.08417443 -0.055973094 -0.06815364 -0.07665764
0003d0 bc 83 b3 bd 94 35 b3 bc a3 50 aa bd c7 00 f7 bc
       -0.08765361 -0.021876134 -0.083161615 -0.030151738
0003e0 dc 79 41 bd 12 78 61 bd e2 92 4e bd 81 00 87 bc
       -0.047235355 -0.05504615 -0.050433047 -0.016479732
0003f0 ac 69 9a bd f6 9f 0a bd 6b 3b 38 bd 0e bf 22 bc
       -0.075396866 -0.033843957 -0.04497854 -0.009933246

classifier.bias f4 [7]
000000 6e 24 cd bd 0f 02 a5 bd 06 4a 94 3b fa d4 ad 3e
       -0.10016714 -0.08057033 0.004525426 0.3395155
000010 1c 77 7b bc ca 4a 34 3d 16 58 1e be
       -0.015348222 0.044016637 -0.1546329
